…
2020-08-23 10:45:10,185 INFO     preprocess:{'answer_top': 4000, 'glove_pt': '/AvaStore/DataSets/visual_qa/datasets/glove/glove.840.300d.pkl'}
2020-08-23 10:45:10,185 INFO     exp_name:expGQAFullsetLOGNetwWarmUp10ep1StepwScene
2020-08-23 10:45:10,186 INFO     Create train_loader and val_loader.........
2020-08-23 10:45:11,272 INFO     number of train instances: 500
2020-08-23 10:45:11,589 INFO     number of val instances: 500
2020-08-23 10:45:11,589 INFO     Create model.........
2020-08-23 10:45:11,591 INFO     device: cuda
2020-08-23 10:45:11,591 INFO     net_len: 12
2020-08-23 10:45:28,080 INFO     num of params: 13973218
2020-08-23 10:45:28,081 INFO     LOGNet(
  (input_unit): InputUnit(
    (object_feat_proj): Linear(in_features=2048, out_features=512, bias=True)
    (spatial_feat_proj): Linear(in_features=7, out_features=512, bias=True)
    (object_spatial_cat): Linear(in_features=1024, out_features=512, bias=True)
    (encoder_embed): Embedding(2855, 300)
    (encoder): LSTM(300, 256, batch_first=True, bidirectional=True)
    (embedding_dropout): Dropout(p=0.15, inplace=False)
    (question_dropout): Dropout(p=0.18, inplace=False)
    (activation): ELU(alpha=1.0)
  )
  (output_unit): OutputUnit(
    (question_proj): Linear(in_features=512, out_features=512, bias=True)
    (activation): ELU(alpha=1.0)
    (classifier): Sequential(
      (0): Dropout(p=0.15, inplace=False)
      (1): Linear(in_features=1024, out_features=512, bias=True)
      (2): ELU(alpha=1.0)
      (3): BatchNorm1d(512, eps=1e-05, momentum=0.1, affine=True, track_running_stats=True)
      (4): Dropout(p=0.15, inplace=False)
      (5): Linear(in_features=512, out_features=1833, bias=True)
    )
  )
  (log_units): LOGUnits(
    (control): Controller(
      (attn_head_1): Linear(in_features=512, out_features=1, bias=True)
      (attn_head_2): Linear(in_features=512, out_features=1, bias=True)
      (control_input): Sequential(
        (0): Linear(in_features=512, out_features=512, bias=True)
        (1): Tanh()
      )
      (control_input_u): ModuleList(
        (0): Linear(in_features=512, out_features=512, bias=True)
        (1): Linear(in_features=512, out_features=512, bias=True)
        (2): Linear(in_features=512, out_features=512, bias=True)
        (3): Linear(in_features=512, out_features=512, bias=True)
        (4): Linear(in_features=512, out_features=512, bias=True)
        (5): Linear(in_features=512, out_features=512, bias=True)
        (6): Linear(in_features=512, out_features=512, bias=True)
        (7): Linear(in_features=512, out_features=512, bias=True)
        (8): Linear(in_features=512, out_features=512, bias=True)
        (9): Linear(in_features=512, out_features=512, bias=True)
        (10): Linear(in_features=512, out_features=512, bias=True)
        (11): Linear(in_features=512, out_features=512, bias=True)
      )
      (concat): Linear(in_features=1024, out_features=512, bias=True)
      (memory_gate): Sigmoid()
      (activation): ELU(alpha=1.0)
    )
    (adj_matrix): GraphConstructor(
      (concat): Linear(in_features=1024, out_features=512, bias=True)
      (dropout): Dropout(p=0.15, inplace=False)
      (kproj): Linear(in_features=512, out_features=512, bias=True)
      (mproj): Linear(in_features=512, out_features=512, bias=True)
      (activation): ELU(alpha=1.0)
      (rank_1_outer): Linear(in_features=512, out_features=1, bias=True)
    )
    (lang_binding): LanguageBinding(
      (concat): Linear(in_features=1024, out_features=512, bias=True)
      (dropout): Dropout(p=0.15, inplace=False)
      (kproj): Linear(in_features=512, out_features=512, bias=True)
      (mproj): Linear(in_features=512, out_features=512, bias=True)
      (activation): ELU(alpha=1.0)
      (words2nodes): WordsToSingleVisualNode(
        (words_embedding_proj): Linear(in_features=512, out_features=512, bias=True)
        (words_embedding_proj_2): Linear(in_features=512, out_features=1, bias=True)
        (words_embedding_proj_alpha): Linear(in_features=512, out_features=512, bias=False)
        (current_obj_feat_proj_alpha): Linear(in_features=512, out_features=512, bias=False)
        (attn_weight_u): ModuleList()
        (attn_weight): Linear(in_features=512, out_features=1, bias=False)
        (updated_obj_feat_proj): Linear(in_features=1024, out_features=512, bias=True)
        (weighted_sum_emb_proj): Linear(in_features=512, out_features=512, bias=True)
      )
    )
    (rep_refinement): RepRefinement(
      (attn): Linear(in_features=512, out_features=1, bias=True)
      (GCN): ResidualGCN(
        (gcn_block): GraphConvolution (512 -> 512)
        (linear): Linear(in_features=512, out_features=512, bias=False)
      )
    )
    (memory_update): MemoryUpdate(
      (linear): Linear(in_features=1024, out_features=512, bias=True)
    )
  )
)
2020-08-23 10:45:28,082 INFO     load glove vectors
2020-08-23 10:45:28,085 INFO     Start training........
2020-08-23 10:45:28,086 INFO     >>>>>> epoch [1m[32m0[0m <<<<<<
2020-08-23 10:46:03,965 INFO     Epoch = 0   avg_loss = 7.699    avg_acc = 0.002
2020-08-23 10:46:16,284 INFO     ~~~~~~ Valid Accuracy: 0.0000 ~~~~~~~
2020-08-23 10:46:16,285 INFO     >>>>>> epoch [1m[32m1[0m <<<<<<
…
